…
2024-07-03 22:03:53,527 INFO: Training statistics:
	Number of train images: 132405
	Dataset enlarge ratio: 1
	Batch size per gpu: 8
	World size (gpu number): 4
	Require iter number per epoch: 4138
	Total epochs: 37; iters: 150000.
2024-07-03 22:03:53,530 INFO: Dataset [COIPairedImageDataset] - ODISR_val is built.
2024-07-03 22:03:53,530 INFO: Number of val images/folders in ODISR_val: 100
2024-07-03 22:03:53,913 INFO: Network [COISR] is created.
2024-07-03 22:03:54,757 INFO: Network: DistributedDataParallel - COISR, with parameters: 17,553,871
2024-07-03 22:03:54,757 INFO: COISR(
  (conv_first): Conv2d(3, 180, kernel_size=(3, 3), stride=(1, 1), padding=(1, 1))
  (patch_embed): PatchEmbed(
    (norm): LayerNorm((180,), eps=1e-05, elementwise_affine=True)
  )
  (patch_unembed): PatchUnEmbed()
  (pos_drop): Dropout(p=0.0, inplace=False)
  (layers): ModuleList(
    (0): RSTB(
      (residual_group): BasicLayer(
        dim=180, input_resolution=(64, 64), depth=6
        (blocks): ModuleList(
          (0): SwinTransformerBlock(
            dim=180, input_resolution=(64, 64), num_heads=6, window_size=8, shift_size=0, mlp_ratio=2
            (norm1): LayerNorm((180,), eps=1e-05, elementwise_affine=True)
            (attn): WindowAttention(
              dim=180, window_size=(8, 8), num_heads=6
              (q): Linear(in_features=180, out_features=180, bias=True)
              (kv): Linear(in_features=180, out_features=360, bias=True)
              (attn_drop): Dropout(p=0.0, inplace=False)
              (proj): Linear(in_features=180, out_features=180, bias=True)
              (proj_drop): Dropout(p=0.0, inplace=False)
              (softmax): Softmax(dim=-1)
            )
            (drop_path): Identity()
            (norm2): LayerNorm((180,), eps=1e-05, elementwise_affine=True)
            (mlp): Mlp(
              (fc1): Linear(in_features=180, out_features=360, bias=True)
              (act): GELU(approximate='none')
              (fc2): Linear(in_features=360, out_features=180, bias=True)
              (drop): Dropout(p=0.0, inplace=False)
            )
            (offset_conv): Sequential(
              (0): Conv2d(4, 256, kernel_size=(1, 1), stride=(1, 1))
              (1): LeakyReLU(negative_slope=0.2, inplace=True)
              (2): Conv2d(256, 256, kernel_size=(1, 1), stride=(1, 1))
              (3): LeakyReLU(negative_slope=0.2, inplace=True)
              (4): Conv2d(256, 2, kernel_size=(1, 1), stride=(1, 1))
            )
          )
          (1): SwinTransformerBlock(
            dim=180, input_resolution=(64, 64), num_heads=6, window_size=8, shift_size=4, mlp_ratio=2
            (norm1): LayerNorm((180,), eps=1e-05, elementwise_affine=True)
            (attn): WindowAttention(
              dim=180, window_size=(8, 8), num_heads=6
              (q): Linear(in_features=180, out_features=180, bias=True)
              (kv): Linear(in_features=180, out_features=360, bias=True)
              (attn_drop): Dropout(p=0.0, inplace=False)
              (proj): Linear(in_features=180, out_features=180, bias=True)
              (proj_drop): Dropout(p=0.0, inplace=False)
              (softmax): Softmax(dim=-1)
            )
            (drop_path): DropPath()
            (norm2): LayerNorm((180,), eps=1e-05, elementwise_affine=True)
            (mlp): Mlp(
              (fc1): Linear(in_features=180, out_features=360, bias=True)
              (act): GELU(approximate='none')
              (fc2): Linear(in_features=360, out_features=180, bias=True)
              (drop): Dropout(p=0.0, inplace=False)
            )
            (offset_conv): Sequential(
              (0): Conv2d(4, 256, kernel_size=(1, 1), stride=(1, 1))
              (1): LeakyReLU(negative_slope=0.2, inplace=True)
              (2): Conv2d(256, 256, kernel_size=(1, 1), stride=(1, 1))
              (3): LeakyReLU(negative_slope=0.2, inplace=True)
              (4): Conv2d(256, 2, kernel_size=(1, 1), stride=(1, 1))
            )
          )
          (2): SwinTransformerBlock(
            dim=180, input_resolution=(64, 64), num_heads=6, window_size=8, shift_size=0, mlp_ratio=2
            (norm1): LayerNorm((180,), eps=1e-05, elementwise_affine=True)
            (attn): WindowAttention(
              dim=180, window_size=(8, 8), num_heads=6
              (q): Linear(in_features=180, out_features=180, bias=True)
              (kv): Linear(in_features=180, out_features=360, bias=True)
              (attn_drop): Dropout(p=0.0, inplace=False)
              (proj): Linear(in_features=180, out_features=180, bias=True)
              (proj_drop): Dropout(p=0.0, inplace=False)
              (softmax): Softmax(dim=-1)
            )
            (drop_path): DropPath()
            (norm2): LayerNorm((180,), eps=1e-05, elementwise_affine=True)
            (mlp): Mlp(
              (fc1): Linear(in_features=180, out_features=360, bias=True)
              (act): GELU(approximate='none')
              (fc2): Linear(in_features=360, out_features=180, bias=True)
              (drop): Dropout(p=0.0, inplace=False)
            )
            (offset_conv): Sequential(
              (0): Conv2d(4, 256, kernel_size=(1, 1), stride=(1, 1))
              (1): LeakyReLU(negative_slope=0.2, inplace=True)
              (2): Conv2d(256, 256, kernel_size=(1, 1), stride=(1, 1))
              (3): LeakyReLU(negative_slope=0.2, inplace=True)
              (4): Conv2d(256, 2, kernel_size=(1, 1), stride=(1, 1))
            )
          )
          (3): SwinTransformerBlock(
            dim=180, input_resolution=(64, 64), num_heads=6, window_size=8, shift_size=4, mlp_ratio=2
            (norm1): LayerNorm((180,), eps=1e-05, elementwise_affine=True)
            (attn): WindowAttention(
              dim=180, window_size=(8, 8), num_heads=6
              (q): Linear(in_features=180, out_features=180, bias=True)
              (kv): Linear(in_features=180, out_features=360, bias=True)
              (attn_drop): Dropout(p=0.0, inplace=False)
              (proj): Linear(in_features=180, out_features=180, bias=True)
              (proj_drop): Dropout(p=0.0, inplace=False)
              (softmax): Softmax(dim=-1)
            )
            (drop_path): DropPath()
            (norm2): LayerNorm((180,), eps=1e-05, elementwise_affine=True)
            (mlp): Mlp(
              (fc1): Linear(in_features=180, out_features=360, bias=True)
              (act): GELU(approximate='none')
              (fc2): Linear(in_features=360, out_features=180, bias=True)
              (drop): Dropout(p=0.0, inplace=False)
            )
            (offset_conv): Sequential(
              (0): Conv2d(4, 256, kernel_size=(1, 1), stride=(1, 1))
              (1): LeakyReLU(negative_slope=0.2, inplace=True)
              (2): Conv2d(256, 256, kernel_size=(1, 1), stride=(1, 1))
              (3): LeakyReLU(negative_slope=0.2, inplace=True)
              (4): Conv2d(256, 2, kernel_size=(1, 1), stride=(1, 1))
            )
          )
          (4): SwinTransformerBlock(
            dim=180, input_resolution=(64, 64), num_heads=6, window_size=8, shift_size=0, mlp_ratio=2
            (norm1): LayerNorm((180,), eps=1e-05, elementwise_affine=True)
            (attn): WindowAttention(
              dim=180, window_size=(8, 8), num_heads=6
              (q): Linear(in_features=180, out_features=180, bias=True)
              (kv): Linear(in_features=180, out_features=360, bias=True)
              (attn_drop): Dropout(p=0.0, inplace=False)
              (proj): Linear(in_features=180, out_features=180, bias=True)
              (proj_drop): Dropout(p=0.0, inplace=False)
              (softmax): Softmax(dim=-1)
            )
            (drop_path): DropPath()
            (norm2): LayerNorm((180,), eps=1e-05, elementwise_affine=True)
            (mlp): Mlp(
              (fc1): Linear(in_features=180, out_features=360, bias=True)
              (act): GELU(approximate='none')
              (fc2): Linear(in_features=360, out_features=180, bias=True)
              (drop): Dropout(p=0.0, inplace=False)
            )
            (offset_conv): Sequential(
              (0): Conv2d(4, 256, kernel_size=(1, 1), stride=(1, 1))
              (1): LeakyReLU(negative_slope=0.2, inplace=True)
              (2): Conv2d(256, 256, kernel_size=(1, 1), stride=(1, 1))
              (3): LeakyReLU(negative_slope=0.2, inplace=True)
              (4): Conv2d(256, 2, kernel_size=(1, 1), stride=(1, 1))
            )
          )
          (5): SwinTransformerBlock(
            dim=180, input_resolution=(64, 64), num_heads=6, window_size=8, shift_size=4, mlp_ratio=2
            (norm1): LayerNorm((180,), eps=1e-05, elementwise_affine=True)
            (attn): WindowAttention(
              dim=180, window_size=(8, 8), num_heads=6
              (q): Linear(in_features=180, out_features=180, bias=True)
              (kv): Linear(in_features=180, out_features=360, bias=True)
              (attn_drop): Dropout(p=0.0, inplace=False)
              (proj): Linear(in_features=180, out_features=180, bias=True)
              (proj_drop): Dropout(p=0.0, inplace=False)
              (softmax): Softmax(dim=-1)
            )
            (drop_path): DropPath()
            (norm2): LayerNorm((180,), eps=1e-05, elementwise_affine=True)
            (mlp): Mlp(
              (fc1): Linear(in_features=180, out_features=360, bias=True)
              (act): GELU(approximate='none')
              (fc2): Linear(in_features=360, out_features=180, bias=True)
              (drop): Dropout(p=0.0, inplace=False)
            )
            (offset_conv): Sequential(
              (0): Conv2d(4, 256, kernel_size=(1, 1), stride=(1, 1))
              (1): LeakyReLU(negative_slope=0.2, inplace=True)
              (2): Conv2d(256, 256, kernel_size=(1, 1), stride=(1, 1))
              (3): LeakyReLU(negative_slope=0.2, inplace=True)
              (4): Conv2d(256, 2, kernel_size=(1, 1), stride=(1, 1))
            )
          )
        )
      )
      (conv): Sequential(
        (0): Conv2d(180, 256, kernel_size=(3, 3), stride=(1, 1), padding=(1, 1))
        (1): LeakyReLU(negative_slope=0.2, inplace=True)
      )
      (offset_conv): Sequential(
        (0): Conv2d(2, 256, kernel_size=(1, 1), stride=(1, 1))
        (1): LeakyReLU(negative_slope=0.2, inplace=True)
        (2): Conv2d(256, 256, kernel_size=(1, 1), stride=(1, 1))
        (3): LeakyReLU(negative_slope=0.2, inplace=True)
      )
      (dcn): DCNv4Pack(
        (offset_mask_dw): Conv2d(256, 256, kernel_size=(3, 3), stride=(1, 1), padding=(1, 1), groups=256)
        (offset_mask): Linear(in_features=256, out_features=432, bias=True)
        (value_proj): Linear(in_features=256, out_features=256, bias=True)
        (output_proj): Linear(in_features=256, out_features=256, bias=True)
      )
      (conv_after_dcn): Sequential(
        (0): Conv2d(256, 180, kernel_size=(1, 1), stride=(1, 1))
        (1): LeakyReLU(negative_slope=0.2, inplace=True)
      )
      (patch_embed): PatchEmbed()
      (patch_unembed): PatchUnEmbed()
    )
    (1): RSTB(
      (residual_group): BasicLayer(
        dim=180, input_resolution=(64, 64), depth=6
        (blocks): ModuleList(
          (0): SwinTransformerBlock(
            dim=180, input_resolution=(64, 64), num_heads=6, window_size=8, shift_size=0, mlp_ratio=2
            (norm1): LayerNorm((180,), eps=1e-05, elementwise_affine=True)
            (attn): WindowAttention(
              dim=180, window_size=(8, 8), num_heads=6
              (q): Linear(in_features=180, out_features=180, bias=True)
              (kv): Linear(in_features=180, out_features=360, bias=True)
              (attn_drop): Dropout(p=0.0, inplace=False)
              (proj): Linear(in_features=180, out_features=180, bias=True)
              (proj_drop): Dropout(p=0.0, inplace=False)
              (softmax): Softmax(dim=-1)
            )
            (drop_path): DropPath()
            (norm2): LayerNorm((180,), eps=1e-05, elementwise_affine=True)
            (mlp): Mlp(
              (fc1): Linear(in_features=180, out_features=360, bias=True)
              (act): GELU(approximate='none')
              (fc2): Linear(in_features=360, out_features=180, bias=True)
              (drop): Dropout(p=0.0, inplace=False)
            )
            (offset_conv): Sequential(
              (0): Conv2d(4, 256, kernel_size=(1, 1), stride=(1, 1))
              (1): LeakyReLU(negative_slope=0.2, inplace=True)
              (2): Conv2d(256, 256, kernel_size=(1, 1), stride=(1, 1))
              (3): LeakyReLU(negative_slope=0.2, inplace=True)
              (4): Conv2d(256, 2, kernel_size=(1, 1), stride=(1, 1))
            )
          )
          (1): SwinTransformerBlock(
            dim=180, input_resolution=(64, 64), num_heads=6, window_size=8, shift_size=4, mlp_ratio=2
            (norm1): LayerNorm((180,), eps=1e-05, elementwise_affine=True)
            (attn): WindowAttention(
              dim=180, window_size=(8, 8), num_heads=6
              (q): Linear(in_features=180, out_features=180, bias=True)
              (kv): Linear(in_features=180, out_features=360, bias=True)
              (attn_drop): Dropout(p=0.0, inplace=False)
              (proj): Linear(in_features=180, out_features=180, bias=True)
              (proj_drop): Dropout(p=0.0, inplace=False)
              (softmax): Softmax(dim=-1)
            )
            (drop_path): DropPath()
            (norm2): LayerNorm((180,), eps=1e-05, elementwise_affine=True)
            (mlp): Mlp(
              (fc1): Linear(in_features=180, out_features=360, bias=True)
              (act): GELU(approximate='none')
              (fc2): Linear(in_features=360, out_features=180, bias=True)
              (drop): Dropout(p=0.0, inplace=False)
            )
            (offset_conv): Sequential(
              (0): Conv2d(4, 256, kernel_size=(1, 1), stride=(1, 1))
              (1): LeakyReLU(negative_slope=0.2, inplace=True)
              (2): Conv2d(256, 256, kernel_size=(1, 1), stride=(1, 1))
              (3): LeakyReLU(negative_slope=0.2, inplace=True)
              (4): Conv2d(256, 2, kernel_size=(1, 1), stride=(1, 1))
            )
          )
          (2): SwinTransformerBlock(
            dim=180, input_resolution=(64, 64), num_heads=6, window_size=8, shift_size=0, mlp_ratio=2
            (norm1): LayerNorm((180,), eps=1e-05, elementwise_affine=True)
            (attn): WindowAttention(
              dim=180, window_size=(8, 8), num_heads=6
              (q): Linear(in_features=180, out_features=180, bias=True)
              (kv): Linear(in_features=180, out_features=360, bias=True)
              (attn_drop): Dropout(p=0.0, inplace=False)
              (proj): Linear(in_features=180, out_features=180, bias=True)
              (proj_drop): Dropout(p=0.0, inplace=False)
              (softmax): Softmax(dim=-1)
            )
            (drop_path): DropPath()
            (norm2): LayerNorm((180,), eps=1e-05, elementwise_affine=True)
            (mlp): Mlp(
              (fc1): Linear(in_features=180, out_features=360, bias=True)
              (act): GELU(approximate='none')
              (fc2): Linear(in_features=360, out_features=180, bias=True)
              (drop): Dropout(p=0.0, inplace=False)
            )
            (offset_conv): Sequential(
              (0): Conv2d(4, 256, kernel_size=(1, 1), stride=(1, 1))
              (1): LeakyReLU(negative_slope=0.2, inplace=True)
              (2): Conv2d(256, 256, kernel_size=(1, 1), stride=(1, 1))
              (3): LeakyReLU(negative_slope=0.2, inplace=True)
              (4): Conv2d(256, 2, kernel_size=(1, 1), stride=(1, 1))
            )
          )
          (3): SwinTransformerBlock(
            dim=180, input_resolution=(64, 64), num_heads=6, window_size=8, shift_size=4, mlp_ratio=2
            (norm1): LayerNorm((180,), eps=1e-05, elementwise_affine=True)
            (attn): WindowAttention(
              dim=180, window_size=(8, 8), num_heads=6
              (q): Linear(in_features=180, out_features=180, bias=True)
              (kv): Linear(in_features=180, out_features=360, bias=True)
              (attn_drop): Dropout(p=0.0, inplace=False)
              (proj): Linear(in_features=180, out_features=180, bias=True)
              (proj_drop): Dropout(p=0.0, inplace=False)
              (softmax): Softmax(dim=-1)
            )
            (drop_path): DropPath()
            (norm2): LayerNorm((180,), eps=1e-05, elementwise_affine=True)
            (mlp): Mlp(
              (fc1): Linear(in_features=180, out_features=360, bias=True)
              (act): GELU(approximate='none')
              (fc2): Linear(in_features=360, out_features=180, bias=True)
              (drop): Dropout(p=0.0, inplace=False)
            )
            (offset_conv): Sequential(
              (0): Conv2d(4, 256, kernel_size=(1, 1), stride=(1, 1))
              (1): LeakyReLU(negative_slope=0.2, inplace=True)
              (2): Conv2d(256, 256, kernel_size=(1, 1), stride=(1, 1))
              (3): LeakyReLU(negative_slope=0.2, inplace=True)
              (4): Conv2d(256, 2, kernel_size=(1, 1), stride=(1, 1))
            )
          )
          (4): SwinTransformerBlock(
            dim=180, input_resolution=(64, 64), num_heads=6, window_size=8, shift_size=0, mlp_ratio=2
            (norm1): LayerNorm((180,), eps=1e-05, elementwise_affine=True)
            (attn): WindowAttention(
              dim=180, window_size=(8, 8), num_heads=6
              (q): Linear(in_features=180, out_features=180, bias=True)
              (kv): Linear(in_features=180, out_features=360, bias=True)
              (attn_drop): Dropout(p=0.0, inplace=False)
              (proj): Linear(in_features=180, out_features=180, bias=True)
              (proj_drop): Dropout(p=0.0, inplace=False)
              (softmax): Softmax(dim=-1)
            )
            (drop_path): DropPath()
            (norm2): LayerNorm((180,), eps=1e-05, elementwise_affine=True)
            (mlp): Mlp(
              (fc1): Linear(in_features=180, out_features=360, bias=True)
              (act): GELU(approximate='none')
              (fc2): Linear(in_features=360, out_features=180, bias=True)
              (drop): Dropout(p=0.0, inplace=False)
            )
            (offset_conv): Sequential(
              (0): Conv2d(4, 256, kernel_size=(1, 1), stride=(1, 1))
              (1): LeakyReLU(negative_slope=0.2, inplace=True)
              (2): Conv2d(256, 256, kernel_size=(1, 1), stride=(1, 1))
              (3): LeakyReLU(negative_slope=0.2, inplace=True)
              (4): Conv2d(256, 2, kernel_size=(1, 1), stride=(1, 1))
            )
          )
          (5): SwinTransformerBlock(
            dim=180, input_resolution=(64, 64), num_heads=6, window_size=8, shift_size=4, mlp_ratio=2
            (norm1): LayerNorm((180,), eps=1e-05, elementwise_affine=True)
            (attn): WindowAttention(
              dim=180, window_size=(8, 8), num_heads=6
              (q): Linear(in_features=180, out_features=180, bias=True)
              (kv): Linear(in_features=180, out_features=360, bias=True)
              (attn_drop): Dropout(p=0.0, inplace=False)
              (proj): Linear(in_features=180, out_features=180, bias=True)
              (proj_drop): Dropout(p=0.0, inplace=False)
              (softmax): Softmax(dim=-1)
            )
            (drop_path): DropPath()
            (norm2): LayerNorm((180,), eps=1e-05, elementwise_affine=True)
            (mlp): Mlp(
              (fc1): Linear(in_features=180, out_features=360, bias=True)
              (act): GELU(approximate='none')
              (fc2): Linear(in_features=360, out_features=180, bias=True)
              (drop): Dropout(p=0.0, inplace=False)
            )
            (offset_conv): Sequential(
              (0): Conv2d(4, 256, kernel_size=(1, 1), stride=(1, 1))
              (1): LeakyReLU(negative_slope=0.2, inplace=True)
              (2): Conv2d(256, 256, kernel_size=(1, 1), stride=(1, 1))
              (3): LeakyReLU(negative_slope=0.2, inplace=True)
              (4): Conv2d(256, 2, kernel_size=(1, 1), stride=(1, 1))
            )
          )
        )
      )
      (conv): Sequential(
        (0): Conv2d(180, 256, kernel_size=(3, 3), stride=(1, 1), padding=(1, 1))
        (1): LeakyReLU(negative_slope=0.2, inplace=True)
      )
      (offset_conv): Sequential(
        (0): Conv2d(2, 256, kernel_size=(1, 1), stride=(1, 1))
        (1): LeakyReLU(negative_slope=0.2, inplace=True)
        (2): Conv2d(256, 256, kernel_size=(1, 1), stride=(1, 1))
        (3): LeakyReLU(negative_slope=0.2, inplace=True)
      )
      (dcn): DCNv4Pack(
        (offset_mask_dw): Conv2d(256, 256, kernel_size=(3, 3), stride=(1, 1), padding=(1, 1), groups=256)
        (offset_mask): Linear(in_features=256, out_features=432, bias=True)
        (value_proj): Linear(in_features=256, out_features=256, bias=True)
        (output_proj): Linear(in_features=256, out_features=256, bias=True)
      )
      (conv_after_dcn): Sequential(
        (0): Conv2d(256, 180, kernel_size=(1, 1), stride=(1, 1))
        (1): LeakyReLU(negative_slope=0.2, inplace=True)
      )
      (patch_embed): PatchEmbed()
      (patch_unembed): PatchUnEmbed()
    )
    (2): RSTB(
      (residual_group): BasicLayer(
        dim=180, input_resolution=(64, 64), depth=6
        (blocks): ModuleList(
          (0): SwinTransformerBlock(
            dim=180, input_resolution=(64, 64), num_heads=6, window_size=8, shift_size=0, mlp_ratio=2
            (norm1): LayerNorm((180,), eps=1e-05, elementwise_affine=True)
            (attn): WindowAttention(
              dim=180, window_size=(8, 8), num_heads=6
              (q): Linear(in_features=180, out_features=180, bias=True)
              (kv): Linear(in_features=180, out_features=360, bias=True)
              (attn_drop): Dropout(p=0.0, inplace=False)
              (proj): Linear(in_features=180, out_features=180, bias=True)
              (proj_drop): Dropout(p=0.0, inplace=False)
              (softmax): Softmax(dim=-1)
            )
            (drop_path): DropPath()
            (norm2): LayerNorm((180,), eps=1e-05, elementwise_affine=True)
            (mlp): Mlp(
              (fc1): Linear(in_features=180, out_features=360, bias=True)
              (act): GELU(approximate='none')
              (fc2): Linear(in_features=360, out_features=180, bias=True)
              (drop): Dropout(p=0.0, inplace=False)
            )
            (offset_conv): Sequential(
              (0): Conv2d(4, 256, kernel_size=(1, 1), stride=(1, 1))
              (1): LeakyReLU(negative_slope=0.2, inplace=True)
              (2): Conv2d(256, 256, kernel_size=(1, 1), stride=(1, 1))
              (3): LeakyReLU(negative_slope=0.2, inplace=True)
              (4): Conv2d(256, 2, kernel_size=(1, 1), stride=(1, 1))
            )
          )
          (1): SwinTransformerBlock(
            dim=180, input_resolution=(64, 64), num_heads=6, window_size=8, shift_size=4, mlp_ratio=2
            (norm1): LayerNorm((180,), eps=1e-05, elementwise_affine=True)
            (attn): WindowAttention(
              dim=180, window_size=(8, 8), num_heads=6
              (q): Linear(in_features=180, out_features=180, bias=True)
              (kv): Linear(in_features=180, out_features=360, bias=True)
              (attn_drop): Dropout(p=0.0, inplace=False)
              (proj): Linear(in_features=180, out_features=180, bias=True)
              (proj_drop): Dropout(p=0.0, inplace=False)
              (softmax): Softmax(dim=-1)
            )
            (drop_path): DropPath()
            (norm2): LayerNorm((180,), eps=1e-05, elementwise_affine=True)
            (mlp): Mlp(
              (fc1): Linear(in_features=180, out_features=360, bias=True)
              (act): GELU(approximate='none')
              (fc2): Linear(in_features=360, out_features=180, bias=True)
              (drop): Dropout(p=0.0, inplace=False)
            )
            (offset_conv): Sequential(
              (0): Conv2d(4, 256, kernel_size=(1, 1), stride=(1, 1))
              (1): LeakyReLU(negative_slope=0.2, inplace=True)
              (2): Conv2d(256, 256, kernel_size=(1, 1), stride=(1, 1))
              (3): LeakyReLU(negative_slope=0.2, inplace=True)
              (4): Conv2d(256, 2, kernel_size=(1, 1), stride=(1, 1))
            )
          )
          (2): SwinTransformerBlock(
            dim=180, input_resolution=(64, 64), num_heads=6, window_size=8, shift_size=0, mlp_ratio=2
            (norm1): LayerNorm((180,), eps=1e-05, elementwise_affine=True)
            (attn): WindowAttention(
              dim=180, window_size=(8, 8), num_heads=6
              (q): Linear(in_features=180, out_features=180, bias=True)
              (kv): Linear(in_features=180, out_features=360, bias=True)
              (attn_drop): Dropout(p=0.0, inplace=False)
              (proj): Linear(in_features=180, out_features=180, bias=True)
              (proj_drop): Dropout(p=0.0, inplace=False)
              (softmax): Softmax(dim=-1)
            )
            (drop_path): DropPath()
            (norm2): LayerNorm((180,), eps=1e-05, elementwise_affine=True)
            (mlp): Mlp(
              (fc1): Linear(in_features=180, out_features=360, bias=True)
              (act): GELU(approximate='none')
              (fc2): Linear(in_features=360, out_features=180, bias=True)
              (drop): Dropout(p=0.0, inplace=False)
            )
            (offset_conv): Sequential(
              (0): Conv2d(4, 256, kernel_size=(1, 1), stride=(1, 1))
              (1): LeakyReLU(negative_slope=0.2, inplace=True)
              (2): Conv2d(256, 256, kernel_size=(1, 1), stride=(1, 1))
              (3): LeakyReLU(negative_slope=0.2, inplace=True)
              (4): Conv2d(256, 2, kernel_size=(1, 1), stride=(1, 1))
            )
          )
          (3): SwinTransformerBlock(
            dim=180, input_resolution=(64, 64), num_heads=6, window_size=8, shift_size=4, mlp_ratio=2
            (norm1): LayerNorm((180,), eps=1e-05, elementwise_affine=True)
            (attn): WindowAttention(
              dim=180, window_size=(8, 8), num_heads=6
              (q): Linear(in_features=180, out_features=180, bias=True)
              (kv): Linear(in_features=180, out_features=360, bias=True)
              (attn_drop): Dropout(p=0.0, inplace=False)
              (proj): Linear(in_features=180, out_features=180, bias=True)
              (proj_drop): Dropout(p=0.0, inplace=False)
              (softmax): Softmax(dim=-1)
            )
            (drop_path): DropPath()
            (norm2): LayerNorm((180,), eps=1e-05, elementwise_affine=True)
            (mlp): Mlp(
              (fc1): Linear(in_features=180, out_features=360, bias=True)
              (act): GELU(approximate='none')
              (fc2): Linear(in_features=360, out_features=180, bias=True)
              (drop): Dropout(p=0.0, inplace=False)
            )
            (offset_conv): Sequential(
              (0): Conv2d(4, 256, kernel_size=(1, 1), stride=(1, 1))
              (1): LeakyReLU(negative_slope=0.2, inplace=True)
              (2): Conv2d(256, 256, kernel_size=(1, 1), stride=(1, 1))
              (3): LeakyReLU(negative_slope=0.2, inplace=True)
              (4): Conv2d(256, 2, kernel_size=(1, 1), stride=(1, 1))
            )
          )
          (4): SwinTransformerBlock(
            dim=180, input_resolution=(64, 64), num_heads=6, window_size=8, shift_size=0, mlp_ratio=2
            (norm1): LayerNorm((180,), eps=1e-05, elementwise_affine=True)
            (attn): WindowAttention(
              dim=180, window_size=(8, 8), num_heads=6
              (q): Linear(in_features=180, out_features=180, bias=True)
              (kv): Linear(in_features=180, out_features=360, bias=True)
              (attn_drop): Dropout(p=0.0, inplace=False)
              (proj): Linear(in_features=180, out_features=180, bias=True)
              (proj_drop): Dropout(p=0.0, inplace=False)
              (softmax): Softmax(dim=-1)
            )
            (drop_path): DropPath()
            (norm2): LayerNorm((180,), eps=1e-05, elementwise_affine=True)
            (mlp): Mlp(
              (fc1): Linear(in_features=180, out_features=360, bias=True)
              (act): GELU(approximate='none')
              (fc2): Linear(in_features=360, out_features=180, bias=True)
              (drop): Dropout(p=0.0, inplace=False)
            )
            (offset_conv): Sequential(
              (0): Conv2d(4, 256, kernel_size=(1, 1), stride=(1, 1))
              (1): LeakyReLU(negative_slope=0.2, inplace=True)
              (2): Conv2d(256, 256, kernel_size=(1, 1), stride=(1, 1))
              (3): LeakyReLU(negative_slope=0.2, inplace=True)
              (4): Conv2d(256, 2, kernel_size=(1, 1), stride=(1, 1))
            )
          )
          (5): SwinTransformerBlock(
            dim=180, input_resolution=(64, 64), num_heads=6, window_size=8, shift_size=4, mlp_ratio=2
            (norm1): LayerNorm((180,), eps=1e-05, elementwise_affine=True)
            (attn): WindowAttention(
              dim=180, window_size=(8, 8), num_heads=6
              (q): Linear(in_features=180, out_features=180, bias=True)
              (kv): Linear(in_features=180, out_features=360, bias=True)
              (attn_drop): Dropout(p=0.0, inplace=False)
              (proj): Linear(in_features=180, out_features=180, bias=True)
              (proj_drop): Dropout(p=0.0, inplace=False)
              (softmax): Softmax(dim=-1)
            )
            (drop_path): DropPath()
            (norm2): LayerNorm((180,), eps=1e-05, elementwise_affine=True)
            (mlp): Mlp(
              (fc1): Linear(in_features=180, out_features=360, bias=True)
              (act): GELU(approximate='none')
              (fc2): Linear(in_features=360, out_features=180, bias=True)
              (drop): Dropout(p=0.0, inplace=False)
            )
            (offset_conv): Sequential(
              (0): Conv2d(4, 256, kernel_size=(1, 1), stride=(1, 1))
              (1): LeakyReLU(negative_slope=0.2, inplace=True)
              (2): Conv2d(256, 256, kernel_size=(1, 1), stride=(1, 1))
              (3): LeakyReLU(negative_slope=0.2, inplace=True)
              (4): Conv2d(256, 2, kernel_size=(1, 1), stride=(1, 1))
            )
          )
        )
      )
      (conv): Sequential(
        (0): Conv2d(180, 256, kernel_size=(3, 3), stride=(1, 1), padding=(1, 1))
        (1): LeakyReLU(negative_slope=0.2, inplace=True)
      )
      (offset_conv): Sequential(
        (0): Conv2d(2, 256, kernel_size=(1, 1), stride=(1, 1))
        (1): LeakyReLU(negative_slope=0.2, inplace=True)
        (2): Conv2d(256, 256, kernel_size=(1, 1), stride=(1, 1))
        (3): LeakyReLU(negative_slope=0.2, inplace=True)
      )
      (dcn): DCNv4Pack(
        (offset_mask_dw): Conv2d(256, 256, kernel_size=(3, 3), stride=(1, 1), padding=(1, 1), groups=256)
        (offset_mask): Linear(in_features=256, out_features=432, bias=True)
        (value_proj): Linear(in_features=256, out_features=256, bias=True)
        (output_proj): Linear(in_features=256, out_features=256, bias=True)
      )
      (conv_after_dcn): Sequential(
        (0): Conv2d(256, 180, kernel_size=(1, 1), stride=(1, 1))
        (1): LeakyReLU(negative_slope=0.2, inplace=True)
      )
      (patch_embed): PatchEmbed()
      (patch_unembed): PatchUnEmbed()
    )
    (3): RSTB(
      (residual_group): BasicLayer(
        dim=180, input_resolution=(64, 64), depth=6
        (blocks): ModuleList(
          (0): SwinTransformerBlock(
            dim=180, input_resolution=(64, 64), num_heads=6, window_size=8, shift_size=0, mlp_ratio=2
            (norm1): LayerNorm((180,), eps=1e-05, elementwise_affine=True)
            (attn): WindowAttention(
              dim=180, window_size=(8, 8), num_heads=6
              (q): Linear(in_features=180, out_features=180, bias=True)
              (kv): Linear(in_features=180, out_features=360, bias=True)
              (attn_drop): Dropout(p=0.0, inplace=False)
              (proj): Linear(in_features=180, out_features=180, bias=True)
              (proj_drop): Dropout(p=0.0, inplace=False)
              (softmax): Softmax(dim=-1)
            )
            (drop_path): DropPath()
            (norm2): LayerNorm((180,), eps=1e-05, elementwise_affine=True)
            (mlp): Mlp(
              (fc1): Linear(in_features=180, out_features=360, bias=True)
              (act): GELU(approximate='none')
              (fc2): Linear(in_features=360, out_features=180, bias=True)
              (drop): Dropout(p=0.0, inplace=False)
            )
            (offset_conv): Sequential(
              (0): Conv2d(4, 256, kernel_size=(1, 1), stride=(1, 1))
              (1): LeakyReLU(negative_slope=0.2, inplace=True)
              (2): Conv2d(256, 256, kernel_size=(1, 1), stride=(1, 1))
              (3): LeakyReLU(negative_slope=0.2, inplace=True)
              (4): Conv2d(256, 2, kernel_size=(1, 1), stride=(1, 1))
            )
          )
          (1): SwinTransformerBlock(
            dim=180, input_resolution=(64, 64), num_heads=6, window_size=8, shift_size=4, mlp_ratio=2
            (norm1): LayerNorm((180,), eps=1e-05, elementwise_affine=True)
            (attn): WindowAttention(
              dim=180, window_size=(8, 8), num_heads=6
              (q): Linear(in_features=180, out_features=180, bias=True)
              (kv): Linear(in_features=180, out_features=360, bias=True)
              (attn_drop): Dropout(p=0.0, inplace=False)
              (proj): Linear(in_features=180, out_features=180, bias=True)
              (proj_drop): Dropout(p=0.0, inplace=False)
              (softmax): Softmax(dim=-1)
            )
            (drop_path): DropPath()
            (norm2): LayerNorm((180,), eps=1e-05, elementwise_affine=True)
            (mlp): Mlp(
              (fc1): Linear(in_features=180, out_features=360, bias=True)
              (act): GELU(approximate='none')
              (fc2): Linear(in_features=360, out_features=180, bias=True)
              (drop): Dropout(p=0.0, inplace=False)
            )
            (offset_conv): Sequential(
              (0): Conv2d(4, 256, kernel_size=(1, 1), stride=(1, 1))
              (1): LeakyReLU(negative_slope=0.2, inplace=True)
              (2): Conv2d(256, 256, kernel_size=(1, 1), stride=(1, 1))
              (3): LeakyReLU(negative_slope=0.2, inplace=True)
              (4): Conv2d(256, 2, kernel_size=(1, 1), stride=(1, 1))
            )
          )
          (2): SwinTransformerBlock(
            dim=180, input_resolution=(64, 64), num_heads=6, window_size=8, shift_size=0, mlp_ratio=2
            (norm1): LayerNorm((180,), eps=1e-05, elementwise_affine=True)
            (attn): WindowAttention(
              dim=180, window_size=(8, 8), num_heads=6
              (q): Linear(in_features=180, out_features=180, bias=True)
              (kv): Linear(in_features=180, out_features=360, bias=True)
              (attn_drop): Dropout(p=0.0, inplace=False)
              (proj): Linear(in_features=180, out_features=180, bias=True)
              (proj_drop): Dropout(p=0.0, inplace=False)
              (softmax): Softmax(dim=-1)
            )
            (drop_path): DropPath()
            (norm2): LayerNorm((180,), eps=1e-05, elementwise_affine=True)
            (mlp): Mlp(
              (fc1): Linear(in_features=180, out_features=360, bias=True)
              (act): GELU(approximate='none')
              (fc2): Linear(in_features=360, out_features=180, bias=True)
              (drop): Dropout(p=0.0, inplace=False)
            )
            (offset_conv): Sequential(
              (0): Conv2d(4, 256, kernel_size=(1, 1), stride=(1, 1))
              (1): LeakyReLU(negative_slope=0.2, inplace=True)
              (2): Conv2d(256, 256, kernel_size=(1, 1), stride=(1, 1))
              (3): LeakyReLU(negative_slope=0.2, inplace=True)
              (4): Conv2d(256, 2, kernel_size=(1, 1), stride=(1, 1))
            )
          )
          (3): SwinTransformerBlock(
            dim=180, input_resolution=(64, 64), num_heads=6, window_size=8, shift_size=4, mlp_ratio=2
            (norm1): LayerNorm((180,), eps=1e-05, elementwise_affine=True)
            (attn): WindowAttention(
              dim=180, window_size=(8, 8), num_heads=6
              (q): Linear(in_features=180, out_features=180, bias=True)
              (kv): Linear(in_features=180, out_features=360, bias=True)
              (attn_drop): Dropout(p=0.0, inplace=False)
              (proj): Linear(in_features=180, out_features=180, bias=True)
              (proj_drop): Dropout(p=0.0, inplace=False)
              (softmax): Softmax(dim=-1)
            )
            (drop_path): DropPath()
            (norm2): LayerNorm((180,), eps=1e-05, elementwise_affine=True)
            (mlp): Mlp(
              (fc1): Linear(in_features=180, out_features=360, bias=True)
              (act): GELU(approximate='none')
              (fc2): Linear(in_features=360, out_features=180, bias=True)
              (drop): Dropout(p=0.0, inplace=False)
            )
            (offset_conv): Sequential(
              (0): Conv2d(4, 256, kernel_size=(1, 1), stride=(1, 1))
              (1): LeakyReLU(negative_slope=0.2, inplace=True)
              (2): Conv2d(256, 256, kernel_size=(1, 1), stride=(1, 1))
              (3): LeakyReLU(negative_slope=0.2, inplace=True)
              (4): Conv2d(256, 2, kernel_size=(1, 1), stride=(1, 1))
            )
          )
          (4): SwinTransformerBlock(
            dim=180, input_resolution=(64, 64), num_heads=6, window_size=8, shift_size=0, mlp_ratio=2
            (norm1): LayerNorm((180,), eps=1e-05, elementwise_affine=True)
            (attn): WindowAttention(
              dim=180, window_size=(8, 8), num_heads=6
              (q): Linear(in_features=180, out_features=180, bias=True)
              (kv): Linear(in_features=180, out_features=360, bias=True)
              (attn_drop): Dropout(p=0.0, inplace=False)
              (proj): Linear(in_features=180, out_features=180, bias=True)
              (proj_drop): Dropout(p=0.0, inplace=False)
              (softmax): Softmax(dim=-1)
            )
            (drop_path): DropPath()
            (norm2): LayerNorm((180,), eps=1e-05, elementwise_affine=True)
            (mlp): Mlp(
              (fc1): Linear(in_features=180, out_features=360, bias=True)
              (act): GELU(approximate='none')
              (fc2): Linear(in_features=360, out_features=180, bias=True)
              (drop): Dropout(p=0.0, inplace=False)
            )
            (offset_conv): Sequential(
              (0): Conv2d(4, 256, kernel_size=(1, 1), stride=(1, 1))
              (1): LeakyReLU(negative_slope=0.2, inplace=True)
              (2): Conv2d(256, 256, kernel_size=(1, 1), stride=(1, 1))
              (3): LeakyReLU(negative_slope=0.2, inplace=True)
              (4): Conv2d(256, 2, kernel_size=(1, 1), stride=(1, 1))
            )
          )
          (5): SwinTransformerBlock(
            dim=180, input_resolution=(64, 64), num_heads=6, window_size=8, shift_size=4, mlp_ratio=2
            (norm1): LayerNorm((180,), eps=1e-05, elementwise_affine=True)
            (attn): WindowAttention(
              dim=180, window_size=(8, 8), num_heads=6
              (q): Linear(in_features=180, out_features=180, bias=True)
              (kv): Linear(in_features=180, out_features=360, bias=True)
              (attn_drop): Dropout(p=0.0, inplace=False)
              (proj): Linear(in_features=180, out_features=180, bias=True)
              (proj_drop): Dropout(p=0.0, inplace=False)
              (softmax): Softmax(dim=-1)
            )
            (drop_path): DropPath()
            (norm2): LayerNorm((180,), eps=1e-05, elementwise_affine=True)
            (mlp): Mlp(
              (fc1): Linear(in_features=180, out_features=360, bias=True)
              (act): GELU(approximate='none')
              (fc2): Linear(in_features=360, out_features=180, bias=True)
              (drop): Dropout(p=0.0, inplace=False)
            )
            (offset_conv): Sequential(
              (0): Conv2d(4, 256, kernel_size=(1, 1), stride=(1, 1))
              (1): LeakyReLU(negative_slope=0.2, inplace=True)
              (2): Conv2d(256, 256, kernel_size=(1, 1), stride=(1, 1))
              (3): LeakyReLU(negative_slope=0.2, inplace=True)
              (4): Conv2d(256, 2, kernel_size=(1, 1), stride=(1, 1))
            )
          )
        )
      )
      (conv): Sequential(
        (0): Conv2d(180, 256, kernel_size=(3, 3), stride=(1, 1), padding=(1, 1))
        (1): LeakyReLU(negative_slope=0.2, inplace=True)
      )
      (offset_conv): Sequential(
        (0): Conv2d(2, 256, kernel_size=(1, 1), stride=(1, 1))
        (1): LeakyReLU(negative_slope=0.2, inplace=True)
        (2): Conv2d(256, 256, kernel_size=(1, 1), stride=(1, 1))
        (3): LeakyReLU(negative_slope=0.2, inplace=True)
      )
      (dcn): DCNv4Pack(
        (offset_mask_dw): Conv2d(256, 256, kernel_size=(3, 3), stride=(1, 1), padding=(1, 1), groups=256)
        (offset_mask): Linear(in_features=256, out_features=432, bias=True)
        (value_proj): Linear(in_features=256, out_features=256, bias=True)
        (output_proj): Linear(in_features=256, out_features=256, bias=True)
      )
      (conv_after_dcn): Sequential(
        (0): Conv2d(256, 180, kernel_size=(1, 1), stride=(1, 1))
        (1): LeakyReLU(negative_slope=0.2, inplace=True)
      )
      (patch_embed): PatchEmbed()
      (patch_unembed): PatchUnEmbed()
    )
    (4): RSTB(
      (residual_group): BasicLayer(
        dim=180, input_resolution=(64, 64), depth=6
        (blocks): ModuleList(
          (0): SwinTransformerBlock(
            dim=180, input_resolution=(64, 64), num_heads=6, window_size=8, shift_size=0, mlp_ratio=2
            (norm1): LayerNorm((180,), eps=1e-05, elementwise_affine=True)
            (attn): WindowAttention(
              dim=180, window_size=(8, 8), num_heads=6
              (q): Linear(in_features=180, out_features=180, bias=True)
              (kv): Linear(in_features=180, out_features=360, bias=True)
              (attn_drop): Dropout(p=0.0, inplace=False)
              (proj): Linear(in_features=180, out_features=180, bias=True)
              (proj_drop): Dropout(p=0.0, inplace=False)
              (softmax): Softmax(dim=-1)
            )
            (drop_path): DropPath()
            (norm2): LayerNorm((180,), eps=1e-05, elementwise_affine=True)
            (mlp): Mlp(
              (fc1): Linear(in_features=180, out_features=360, bias=True)
              (act): GELU(approximate='none')
              (fc2): Linear(in_features=360, out_features=180, bias=True)
              (drop): Dropout(p=0.0, inplace=False)
            )
            (offset_conv): Sequential(
              (0): Conv2d(4, 256, kernel_size=(1, 1), stride=(1, 1))
              (1): LeakyReLU(negative_slope=0.2, inplace=True)
              (2): Conv2d(256, 256, kernel_size=(1, 1), stride=(1, 1))
              (3): LeakyReLU(negative_slope=0.2, inplace=True)
              (4): Conv2d(256, 2, kernel_size=(1, 1), stride=(1, 1))
            )
          )
          (1): SwinTransformerBlock(
            dim=180, input_resolution=(64, 64), num_heads=6, window_size=8, shift_size=4, mlp_ratio=2
            (norm1): LayerNorm((180,), eps=1e-05, elementwise_affine=True)
            (attn): WindowAttention(
              dim=180, window_size=(8, 8), num_heads=6
              (q): Linear(in_features=180, out_features=180, bias=True)
              (kv): Linear(in_features=180, out_features=360, bias=True)
              (attn_drop): Dropout(p=0.0, inplace=False)
              (proj): Linear(in_features=180, out_features=180, bias=True)
              (proj_drop): Dropout(p=0.0, inplace=False)
              (softmax): Softmax(dim=-1)
            )
            (drop_path): DropPath()
            (norm2): LayerNorm((180,), eps=1e-05, elementwise_affine=True)
            (mlp): Mlp(
              (fc1): Linear(in_features=180, out_features=360, bias=True)
              (act): GELU(approximate='none')
              (fc2): Linear(in_features=360, out_features=180, bias=True)
              (drop): Dropout(p=0.0, inplace=False)
            )
            (offset_conv): Sequential(
              (0): Conv2d(4, 256, kernel_size=(1, 1), stride=(1, 1))
              (1): LeakyReLU(negative_slope=0.2, inplace=True)
              (2): Conv2d(256, 256, kernel_size=(1, 1), stride=(1, 1))
              (3): LeakyReLU(negative_slope=0.2, inplace=True)
              (4): Conv2d(256, 2, kernel_size=(1, 1), stride=(1, 1))
            )
          )
          (2): SwinTransformerBlock(
            dim=180, input_resolution=(64, 64), num_heads=6, window_size=8, shift_size=0, mlp_ratio=2
            (norm1): LayerNorm((180,), eps=1e-05, elementwise_affine=True)
            (attn): WindowAttention(
              dim=180, window_size=(8, 8), num_heads=6
              (q): Linear(in_features=180, out_features=180, bias=True)
              (kv): Linear(in_features=180, out_features=360, bias=True)
              (attn_drop): Dropout(p=0.0, inplace=False)
              (proj): Linear(in_features=180, out_features=180, bias=True)
              (proj_drop): Dropout(p=0.0, inplace=False)
              (softmax): Softmax(dim=-1)
            )
            (drop_path): DropPath()
            (norm2): LayerNorm((180,), eps=1e-05, elementwise_affine=True)
            (mlp): Mlp(
              (fc1): Linear(in_features=180, out_features=360, bias=True)
              (act): GELU(approximate='none')
              (fc2): Linear(in_features=360, out_features=180, bias=True)
              (drop): Dropout(p=0.0, inplace=False)
            )
            (offset_conv): Sequential(
              (0): Conv2d(4, 256, kernel_size=(1, 1), stride=(1, 1))
              (1): LeakyReLU(negative_slope=0.2, inplace=True)
              (2): Conv2d(256, 256, kernel_size=(1, 1), stride=(1, 1))
              (3): LeakyReLU(negative_slope=0.2, inplace=True)
              (4): Conv2d(256, 2, kernel_size=(1, 1), stride=(1, 1))
            )
          )
          (3): SwinTransformerBlock(
            dim=180, input_resolution=(64, 64), num_heads=6, window_size=8, shift_size=4, mlp_ratio=2
            (norm1): LayerNorm((180,), eps=1e-05, elementwise_affine=True)
            (attn): WindowAttention(
              dim=180, window_size=(8, 8), num_heads=6
              (q): Linear(in_features=180, out_features=180, bias=True)
              (kv): Linear(in_features=180, out_features=360, bias=True)
              (attn_drop): Dropout(p=0.0, inplace=False)
              (proj): Linear(in_features=180, out_features=180, bias=True)
              (proj_drop): Dropout(p=0.0, inplace=False)
              (softmax): Softmax(dim=-1)
            )
            (drop_path): DropPath()
            (norm2): LayerNorm((180,), eps=1e-05, elementwise_affine=True)
            (mlp): Mlp(
              (fc1): Linear(in_features=180, out_features=360, bias=True)
              (act): GELU(approximate='none')
              (fc2): Linear(in_features=360, out_features=180, bias=True)
              (drop): Dropout(p=0.0, inplace=False)
            )
            (offset_conv): Sequential(
              (0): Conv2d(4, 256, kernel_size=(1, 1), stride=(1, 1))
              (1): LeakyReLU(negative_slope=0.2, inplace=True)
              (2): Conv2d(256, 256, kernel_size=(1, 1), stride=(1, 1))
              (3): LeakyReLU(negative_slope=0.2, inplace=True)
              (4): Conv2d(256, 2, kernel_size=(1, 1), stride=(1, 1))
            )
          )
          (4): SwinTransformerBlock(
            dim=180, input_resolution=(64, 64), num_heads=6, window_size=8, shift_size=0, mlp_ratio=2
            (norm1): LayerNorm((180,), eps=1e-05, elementwise_affine=True)
            (attn): WindowAttention(
              dim=180, window_size=(8, 8), num_heads=6
              (q): Linear(in_features=180, out_features=180, bias=True)
              (kv): Linear(in_features=180, out_features=360, bias=True)
              (attn_drop): Dropout(p=0.0, inplace=False)
              (proj): Linear(in_features=180, out_features=180, bias=True)
              (proj_drop): Dropout(p=0.0, inplace=False)
              (softmax): Softmax(dim=-1)
            )
            (drop_path): DropPath()
            (norm2): LayerNorm((180,), eps=1e-05, elementwise_affine=True)
            (mlp): Mlp(
              (fc1): Linear(in_features=180, out_features=360, bias=True)
              (act): GELU(approximate='none')
              (fc2): Linear(in_features=360, out_features=180, bias=True)
              (drop): Dropout(p=0.0, inplace=False)
            )
            (offset_conv): Sequential(
              (0): Conv2d(4, 256, kernel_size=(1, 1), stride=(1, 1))
              (1): LeakyReLU(negative_slope=0.2, inplace=True)
              (2): Conv2d(256, 256, kernel_size=(1, 1), stride=(1, 1))
              (3): LeakyReLU(negative_slope=0.2, inplace=True)
              (4): Conv2d(256, 2, kernel_size=(1, 1), stride=(1, 1))
            )
          )
          (5): SwinTransformerBlock(
            dim=180, input_resolution=(64, 64), num_heads=6, window_size=8, shift_size=4, mlp_ratio=2
            (norm1): LayerNorm((180,), eps=1e-05, elementwise_affine=True)
            (attn): WindowAttention(
              dim=180, window_size=(8, 8), num_heads=6
              (q): Linear(in_features=180, out_features=180, bias=True)
              (kv): Linear(in_features=180, out_features=360, bias=True)
              (attn_drop): Dropout(p=0.0, inplace=False)
              (proj): Linear(in_features=180, out_features=180, bias=True)
              (proj_drop): Dropout(p=0.0, inplace=False)
              (softmax): Softmax(dim=-1)
            )
            (drop_path): DropPath()
            (norm2): LayerNorm((180,), eps=1e-05, elementwise_affine=True)
            (mlp): Mlp(
              (fc1): Linear(in_features=180, out_features=360, bias=True)
              (act): GELU(approximate='none')
              (fc2): Linear(in_features=360, out_features=180, bias=True)
              (drop): Dropout(p=0.0, inplace=False)
            )
            (offset_conv): Sequential(
              (0): Conv2d(4, 256, kernel_size=(1, 1), stride=(1, 1))
              (1): LeakyReLU(negative_slope=0.2, inplace=True)
              (2): Conv2d(256, 256, kernel_size=(1, 1), stride=(1, 1))
              (3): LeakyReLU(negative_slope=0.2, inplace=True)
              (4): Conv2d(256, 2, kernel_size=(1, 1), stride=(1, 1))
            )
          )
        )
      )
      (conv): Sequential(
        (0): Conv2d(180, 256, kernel_size=(3, 3), stride=(1, 1), padding=(1, 1))
        (1): LeakyReLU(negative_slope=0.2, inplace=True)
      )
      (offset_conv): Sequential(
        (0): Conv2d(2, 256, kernel_size=(1, 1), stride=(1, 1))
        (1): LeakyReLU(negative_slope=0.2, inplace=True)
        (2): Conv2d(256, 256, kernel_size=(1, 1), stride=(1, 1))
        (3): LeakyReLU(negative_slope=0.2, inplace=True)
      )
      (dcn): DCNv4Pack(
        (offset_mask_dw): Conv2d(256, 256, kernel_size=(3, 3), stride=(1, 1), padding=(1, 1), groups=256)
        (offset_mask): Linear(in_features=256, out_features=432, bias=True)
        (value_proj): Linear(in_features=256, out_features=256, bias=True)
        (output_proj): Linear(in_features=256, out_features=256, bias=True)
      )
      (conv_after_dcn): Sequential(
        (0): Conv2d(256, 180, kernel_size=(1, 1), stride=(1, 1))
        (1): LeakyReLU(negative_slope=0.2, inplace=True)
      )
      (patch_embed): PatchEmbed()
      (patch_unembed): PatchUnEmbed()
    )
    (5): RSTB(
      (residual_group): BasicLayer(
        dim=180, input_resolution=(64, 64), depth=6
        (blocks): ModuleList(
          (0): SwinTransformerBlock(
            dim=180, input_resolution=(64, 64), num_heads=6, window_size=8, shift_size=0, mlp_ratio=2
            (norm1): LayerNorm((180,), eps=1e-05, elementwise_affine=True)
            (attn): WindowAttention(
              dim=180, window_size=(8, 8), num_heads=6
              (q): Linear(in_features=180, out_features=180, bias=True)
              (kv): Linear(in_features=180, out_features=360, bias=True)
              (attn_drop): Dropout(p=0.0, inplace=False)
              (proj): Linear(in_features=180, out_features=180, bias=True)
              (proj_drop): Dropout(p=0.0, inplace=False)
              (softmax): Softmax(dim=-1)
            )
            (drop_path): DropPath()
            (norm2): LayerNorm((180,), eps=1e-05, elementwise_affine=True)
            (mlp): Mlp(
              (fc1): Linear(in_features=180, out_features=360, bias=True)
              (act): GELU(approximate='none')
              (fc2): Linear(in_features=360, out_features=180, bias=True)
              (drop): Dropout(p=0.0, inplace=False)
            )
            (offset_conv): Sequential(
              (0): Conv2d(4, 256, kernel_size=(1, 1), stride=(1, 1))
              (1): LeakyReLU(negative_slope=0.2, inplace=True)
              (2): Conv2d(256, 256, kernel_size=(1, 1), stride=(1, 1))
              (3): LeakyReLU(negative_slope=0.2, inplace=True)
              (4): Conv2d(256, 2, kernel_size=(1, 1), stride=(1, 1))
            )
          )
          (1): SwinTransformerBlock(
            dim=180, input_resolution=(64, 64), num_heads=6, window_size=8, shift_size=4, mlp_ratio=2
            (norm1): LayerNorm((180,), eps=1e-05, elementwise_affine=True)
            (attn): WindowAttention(
              dim=180, window_size=(8, 8), num_heads=6
              (q): Linear(in_features=180, out_features=180, bias=True)
              (kv): Linear(in_features=180, out_features=360, bias=True)
              (attn_drop): Dropout(p=0.0, inplace=False)
              (proj): Linear(in_features=180, out_features=180, bias=True)
              (proj_drop): Dropout(p=0.0, inplace=False)
              (softmax): Softmax(dim=-1)
            )
            (drop_path): DropPath()
            (norm2): LayerNorm((180,), eps=1e-05, elementwise_affine=True)
            (mlp): Mlp(
              (fc1): Linear(in_features=180, out_features=360, bias=True)
              (act): GELU(approximate='none')
              (fc2): Linear(in_features=360, out_features=180, bias=True)
              (drop): Dropout(p=0.0, inplace=False)
            )
            (offset_conv): Sequential(
              (0): Conv2d(4, 256, kernel_size=(1, 1), stride=(1, 1))
              (1): LeakyReLU(negative_slope=0.2, inplace=True)
              (2): Conv2d(256, 256, kernel_size=(1, 1), stride=(1, 1))
              (3): LeakyReLU(negative_slope=0.2, inplace=True)
              (4): Conv2d(256, 2, kernel_size=(1, 1), stride=(1, 1))
            )
          )
          (2): SwinTransformerBlock(
            dim=180, input_resolution=(64, 64), num_heads=6, window_size=8, shift_size=0, mlp_ratio=2
            (norm1): LayerNorm((180,), eps=1e-05, elementwise_affine=True)
            (attn): WindowAttention(
              dim=180, window_size=(8, 8), num_heads=6
              (q): Linear(in_features=180, out_features=180, bias=True)
              (kv): Linear(in_features=180, out_features=360, bias=True)
              (attn_drop): Dropout(p=0.0, inplace=False)
              (proj): Linear(in_features=180, out_features=180, bias=True)
              (proj_drop): Dropout(p=0.0, inplace=False)
              (softmax): Softmax(dim=-1)
            )
            (drop_path): DropPath()
            (norm2): LayerNorm((180,), eps=1e-05, elementwise_affine=True)
            (mlp): Mlp(
              (fc1): Linear(in_features=180, out_features=360, bias=True)
              (act): GELU(approximate='none')
              (fc2): Linear(in_features=360, out_features=180, bias=True)
              (drop): Dropout(p=0.0, inplace=False)
            )
            (offset_conv): Sequential(
              (0): Conv2d(4, 256, kernel_size=(1, 1), stride=(1, 1))
              (1): LeakyReLU(negative_slope=0.2, inplace=True)
              (2): Conv2d(256, 256, kernel_size=(1, 1), stride=(1, 1))
              (3): LeakyReLU(negative_slope=0.2, inplace=True)
              (4): Conv2d(256, 2, kernel_size=(1, 1), stride=(1, 1))
            )
          )
          (3): SwinTransformerBlock(
            dim=180, input_resolution=(64, 64), num_heads=6, window_size=8, shift_size=4, mlp_ratio=2
            (norm1): LayerNorm((180,), eps=1e-05, elementwise_affine=True)
            (attn): WindowAttention(
              dim=180, window_size=(8, 8), num_heads=6
              (q): Linear(in_features=180, out_features=180, bias=True)
              (kv): Linear(in_features=180, out_features=360, bias=True)
              (attn_drop): Dropout(p=0.0, inplace=False)
              (proj): Linear(in_features=180, out_features=180, bias=True)
              (proj_drop): Dropout(p=0.0, inplace=False)
              (softmax): Softmax(dim=-1)
            )
            (drop_path): DropPath()
            (norm2): LayerNorm((180,), eps=1e-05, elementwise_affine=True)
            (mlp): Mlp(
              (fc1): Linear(in_features=180, out_features=360, bias=True)
              (act): GELU(approximate='none')
              (fc2): Linear(in_features=360, out_features=180, bias=True)
              (drop): Dropout(p=0.0, inplace=False)
            )
            (offset_conv): Sequential(
              (0): Conv2d(4, 256, kernel_size=(1, 1), stride=(1, 1))
              (1): LeakyReLU(negative_slope=0.2, inplace=True)
              (2): Conv2d(256, 256, kernel_size=(1, 1), stride=(1, 1))
              (3): LeakyReLU(negative_slope=0.2, inplace=True)
              (4): Conv2d(256, 2, kernel_size=(1, 1), stride=(1, 1))
            )
          )
          (4): SwinTransformerBlock(
            dim=180, input_resolution=(64, 64), num_heads=6, window_size=8, shift_size=0, mlp_ratio=2
            (norm1): LayerNorm((180,), eps=1e-05, elementwise_affine=True)
            (attn): WindowAttention(
              dim=180, window_size=(8, 8), num_heads=6
              (q): Linear(in_features=180, out_features=180, bias=True)
              (kv): Linear(in_features=180, out_features=360, bias=True)
              (attn_drop): Dropout(p=0.0, inplace=False)
              (proj): Linear(in_features=180, out_features=180, bias=True)
              (proj_drop): Dropout(p=0.0, inplace=False)
              (softmax): Softmax(dim=-1)
            )
            (drop_path): DropPath()
            (norm2): LayerNorm((180,), eps=1e-05, elementwise_affine=True)
            (mlp): Mlp(
              (fc1): Linear(in_features=180, out_features=360, bias=True)
              (act): GELU(approximate='none')
              (fc2): Linear(in_features=360, out_features=180, bias=True)
              (drop): Dropout(p=0.0, inplace=False)
            )
            (offset_conv): Sequential(
              (0): Conv2d(4, 256, kernel_size=(1, 1), stride=(1, 1))
              (1): LeakyReLU(negative_slope=0.2, inplace=True)
              (2): Conv2d(256, 256, kernel_size=(1, 1), stride=(1, 1))
              (3): LeakyReLU(negative_slope=0.2, inplace=True)
              (4): Conv2d(256, 2, kernel_size=(1, 1), stride=(1, 1))
            )
          )
          (5): SwinTransformerBlock(
            dim=180, input_resolution=(64, 64), num_heads=6, window_size=8, shift_size=4, mlp_ratio=2
            (norm1): LayerNorm((180,), eps=1e-05, elementwise_affine=True)
            (attn): WindowAttention(
              dim=180, window_size=(8, 8), num_heads=6
              (q): Linear(in_features=180, out_features=180, bias=True)
              (kv): Linear(in_features=180, out_features=360, bias=True)
              (attn_drop): Dropout(p=0.0, inplace=False)
              (proj): Linear(in_features=180, out_features=180, bias=True)
              (proj_drop): Dropout(p=0.0, inplace=False)
              (softmax): Softmax(dim=-1)
            )
            (drop_path): DropPath()
            (norm2): LayerNorm((180,), eps=1e-05, elementwise_affine=True)
            (mlp): Mlp(
              (fc1): Linear(in_features=180, out_features=360, bias=True)
              (act): GELU(approximate='none')
              (fc2): Linear(in_features=360, out_features=180, bias=True)
              (drop): Dropout(p=0.0, inplace=False)
            )
            (offset_conv): Sequential(
              (0): Conv2d(4, 256, kernel_size=(1, 1), stride=(1, 1))
              (1): LeakyReLU(negative_slope=0.2, inplace=True)
              (2): Conv2d(256, 256, kernel_size=(1, 1), stride=(1, 1))
              (3): LeakyReLU(negative_slope=0.2, inplace=True)
              (4): Conv2d(256, 2, kernel_size=(1, 1), stride=(1, 1))
            )
          )
        )
      )
      (conv): Sequential(
        (0): Conv2d(180, 256, kernel_size=(3, 3), stride=(1, 1), padding=(1, 1))
        (1): LeakyReLU(negative_slope=0.2, inplace=True)
      )
      (offset_conv): Sequential(
        (0): Conv2d(2, 256, kernel_size=(1, 1), stride=(1, 1))
        (1): LeakyReLU(negative_slope=0.2, inplace=True)
        (2): Conv2d(256, 256, kernel_size=(1, 1), stride=(1, 1))
        (3): LeakyReLU(negative_slope=0.2, inplace=True)
      )
      (dcn): DCNv4Pack(
        (offset_mask_dw): Conv2d(256, 256, kernel_size=(3, 3), stride=(1, 1), padding=(1, 1), groups=256)
        (offset_mask): Linear(in_features=256, out_features=432, bias=True)
        (value_proj): Linear(in_features=256, out_features=256, bias=True)
        (output_proj): Linear(in_features=256, out_features=256, bias=True)
      )
      (conv_after_dcn): Sequential(
        (0): Conv2d(256, 180, kernel_size=(1, 1), stride=(1, 1))
        (1): LeakyReLU(negative_slope=0.2, inplace=True)
      )
      (patch_embed): PatchEmbed()
      (patch_unembed): PatchUnEmbed()
    )
  )
  (norm): LayerNorm((180,), eps=1e-05, elementwise_affine=True)
  (conv_after_body): Sequential(
    (0): Conv2d(180, 256, kernel_size=(3, 3), stride=(1, 1), padding=(1, 1))
    (1): LeakyReLU(negative_slope=0.2, inplace=True)
  )
  (offset_conv): Sequential(
    (0): Conv2d(2, 256, kernel_size=(1, 1), stride=(1, 1))
    (1): LeakyReLU(negative_slope=0.2, inplace=True)
    (2): Conv2d(256, 256, kernel_size=(1, 1), stride=(1, 1))
    (3): LeakyReLU(negative_slope=0.2, inplace=True)
  )
  (dcn): DCNv4Pack(
    (offset_mask_dw): Conv2d(256, 256, kernel_size=(3, 3), stride=(1, 1), padding=(1, 1), groups=256)
    (offset_mask): Linear(in_features=256, out_features=432, bias=True)
    (value_proj): Linear(in_features=256, out_features=256, bias=True)
    (output_proj): Linear(in_features=256, out_features=256, bias=True)
  )
  (conv_after_dcn): Sequential(
    (0): Conv2d(256, 180, kernel_size=(1, 1), stride=(1, 1))
    (1): LeakyReLU(negative_slope=0.2, inplace=True)
  )
  (conv_before_upsample): Sequential(
    (0): Conv2d(180, 64, kernel_size=(3, 3), stride=(1, 1), padding=(1, 1))
    (1): LeakyReLU(negative_slope=0.01, inplace=True)
  )
  (upsample): Upsample(
    (0): Conv2d(64, 256, kernel_size=(3, 3), stride=(1, 1), padding=(1, 1))
    (1): PixelShuffle(upscale_factor=2)
  )
  (conv_last): Conv2d(64, 3, kernel_size=(3, 3), stride=(1, 1), padding=(1, 1))
)
2024-07-03 22:03:54,761 INFO: Use Exponential Moving Average with decay: 0.999
2024-07-03 22:04:13,858 INFO: Network [COISR] is created.
2024-07-03 22:04:13,973 INFO: Loss [L1Loss] is created.
2024-07-03 22:04:13,977 INFO: Model [ODISRModel] is created.
2024-07-03 22:04:28,268 INFO: Use cuda prefetch dataloader
2024-07-03 22:04:28,268 INFO: Start training from epoch: 0, iter: 0
…
